model.pt (torch_old, 123618 bytes, 18 tensors)

lstm.weight_ih_l0 f4 [128, 4]
00000000: 94cc 083e c27b e63d a897 ca3a fe97 01be
00000010: 3970 c63c 7b86 1d3e 9dd3 063e 6bcc 783e
00000020: 97d0 e6be 727c f7be 76c8 c8be efeb 813d
00000030: 261f 10be 3cf8 a8be 3122 11be 94be e7be
00000040: ebb7 cfbd fce8 86bb 9deb 80bd 1040 febb
00000050: c68e 783d 3b79 813e 649d 1e3e a9a6 4f3c
00000060: f651 833c 7f12 1a3e 86b4 5a3e f38b 773e
00000070: 38d1 94bd 47bc cf3d 3f23 52bd 0f82 0a3d
00000080: 3641 a8be 3ddc fdbe 7374 96be 3564 40bf
00000090: 06d1 bcbd f2cc 97be 33e7 a5bd 593c 88bd
000000a0: 770f b9be 892c c2be 6e0a 59be 49d7 14bf
000000b0: c15d 1cbe 4900 77be 3b8e 66be 5b60 e7be
000000c0: 77df 46be 7b93 833d 76af 723d 425b 593e
000000d0: 6c41 11bd e8b6 843d e842 aabd ef85 d5be
000000e0: a168 8cbe a364 34bf ad09 42be e58f e3bd
000000f0: 2172 a9be 8cdc 0dbf 750d 82be 8e7d 763e
00000100: a6ad 073d 4eb2 1e3e 04b9 c0bd ccf3 213f
00000110: fc6a e9be a5ba c9be 6cf9 36be 972b 03bf
00000120: bca6 eebe 3384 09bf 3165 fdbe d8b7 04bf
00000130: 7fb0 1f3e d9fe b1bd 1b54 52bd af03 86bd
00000140: ad34 c13d b263 673e 3a47 983e a6d0 893e
00000150: afaa acbd 32fc 7c3c 93a7 e2bd a1f9 79be
00000160: 1833 883e 4275 c13e 8b5f 773d cb52 0f3f
00000170: a73c 8fbe e236 5fbe 9616 72bd b7a0 a4be
00000180: 6ee3 91be 67df 21bf c526 dfbe 96d9 e2bd
00000190: 523b c1be ed11 c9be 81f2 6fbe 266e 82bd
000001a0: a786 02bf f52d ccbe c289 fbbe 6d90 d0be
000001b0: 0a99 1ebf a8f7 59bf ec3f edbe e385 bcbe
000001c0: 6a16 0dbe f3c5 5fbe 2521 22be 0c81 8c3e
000001d0: 0304 87be 9c02 8cbe 19de 5bbe af05 0dbf
000001e0: a4f6 73be ea4d 73be ae54 93be 3eb6 38bf
000001f0: 4ab3 07be ec4c aabd ae8a 7cbe 7c10 aa3d
00000200: a986 9b3a efc6 853e 48c0 c63d 0006 ca3d
00000210: 839a 833e 691c a33e 57cd 983e 89a9 853e
00000220: 6911 213a 5c2c 02bf 3d37 0dbe bf4b a93e
00000230: 8669 89be cd98 43be 0bd7 303c 88ad 96be
00000240: b2bb b53d 1358 58bd 922c 093e c3a3 e43d
00000250: 656d 733d 7f96 00be 7f22 533b bba8 17be
00000260: 493f a2ba 9b48 b6ba 1959 75bd 87c9 c73e
00000270: 413a ea3d 485d 85bd 79f3 623d 31c9 b03e
00000280: d8e1 bbbe f27b e7be 06a1 20be 0cc2 19bf
00000290: 6540 573d ff30 c7be 81dd c5bb 776d a73c
000002a0: f610 1bbe 6b25 5ebe 2971 cabe 232d 16bf
000002b0: a416 cebc d052 b3be abd0 18bd 0f02 babe
000002c0: cb42 04bc 4a18 633d d368 8ebd 002a e93e
000002d0: cc52 18be a724 8abe 82e0 64bc d310 04bf
000002e0: f328 81be bde0 04bf e2a5 a5be 2b7f 1f3d
000002f0: 20d0 5fbe 92d6 86be 63ed ad3b 0dd0 e93d
00000300: 7b24 b83d b9e1 a03d 1a8f bf3d 1bf5 363f
00000310: c2da 9abe fea0 c6be b69f 41be c37d 7abe
00000320: a27f f7be eb14 15bf ce8e b4be 013f 1bbf
00000330: 3feb fcbb ac90 d3bd 0334 263e a490 373e
00000340: ced8 703e de2f 2a3e 24ff 0e3e b113 363e
00000350: c857 29bd b52e b83c 18d3 3d3e 3f9c 11be
00000360: 4bb4 aa3d d4c2 d13d dac4 823e d3d1 2a3f
00000370: 66db 04be c9fa bcbc b0e1 1b3d 6779 93be
00000380: 6df4 a5be de82 acbe 46b8 82be fbee eebd
00000390: bc07 39be c5b0 0bbf 27ef 9dbe 0adc 06be
000003a0: 6bc4 bbbd 8656 c8be 2abb bdbe 5100 abbe
000003b0: 8521 f3be 6636 45bf 41e0 b9be d689 98be
000003c0: da4d fbbc 8dbc 09bf 3f17 acbe 9deb b63e
000003d0: 0a8e 9ebe fc3e a6be 52a3 cbbe 1c03 1dbf
000003e0: d30f 83be 5ee2 853d 1765 f1bc aee1 c6be
000003f0: 0956 03be 9570 8ebd e856 32bc 2a04 fc3d
0.1335929 0.11254074 0.0015456574 -0.12655637 0.024223434 0.15383331 0.13166662 0.2429673
-0.45081016 -0.48337132 -0.3921544 0.06343829 -0.14074382 -0.33001888 -0.14173199 -0.45262587
-0.101425014 -0.0041171294 -0.0629494 -0.0077591017 0.060683034 0.25287804 0.15489727 0.012674012
0.016030293 0.15046118 0.21357927 0.2417448 -0.07266468 0.10143333 -0.051303145 0.03381544
-0.32862252 -0.4958209 -0.2938572 -0.75152904 -0.092195556 -0.29648548 -0.081007384 -0.066521354
-0.3614461 -0.37924603 -0.21195385 -0.58141 -0.1527014 -0.24121203 -0.22515194 -0.451907
-0.19421183 0.06424614 0.059249364 0.21226218 -0.03546278 0.06480199 -0.083135426 -0.41703746
-0.27423576 -0.7046606 -0.18949004 -0.1111143 -0.33094886 -0.5541465 -0.25400892 0.24071333
0.03312459 0.15497705 -0.09410289 0.6326263 -0.45589435 -0.3940021 -0.17868584 -0.5123839
-0.46611583 -0.53717345 -0.49491265 -0.51843023 0.15594672 -0.086911865 -0.05134974 -0.06543671
0.09433875 0.22596624 0.29741842 0.26917 -0.08430993 0.015440987 -0.110671185 -0.24411632
0.2660148 0.37784773 0.06039385 0.5598571 -0.27975962 -0.2179828 -0.05910357 -0.32153866
-0.28493828 -0.6323151 -0.43584266 -0.110766575 -0.3774057 -0.3927149 -0.23432352 -0.063686654
-0.50986713 -0.39878812 -0.49128538 -0.40735188 -0.6195227 -0.8514352 -0.4633783 -0.36820897
-0.13778082 -0.21852855 -0.15832956 0.27442205 -0.26370248 -0.2734574 -0.21471442 -0.550868
-0.23824555 -0.2376019 -0.28775543 -0.7215308 -0.13251987 -0.08315453 -0.24662277 0.083039254
0.0011865693 0.26128337 0.097046435 0.09864426 0.2570382 0.31857613 0.29844162 0.26105908
0.0006144257 -0.5084894 -0.13790603 0.33065602 -0.2683832 -0.19101258 0.010793458 -0.2942927
0.08873691 -0.05281837 0.13395908 0.111640476 0.0594305 -0.1255741 0.0032216606 -0.1481046
-0.001237848 -0.0013907136 -0.059899423 0.3902094 0.11436892 -0.065119326 0.055407975 0.34528497
-0.36695743 -0.4521175 -0.15686426 -0.6006172 0.052551646 -0.3890457 -0.006038368 0.02043794
-0.15143189 -0.21693961 -0.3953946 -0.58662623 -0.02515728 -0.35024118 -0.037308376 -0.36329696
-0.008072565 0.055443086 -0.069535874 0.45539856 -0.14875335 -0.2698109 -0.013969542 -0.5158817
-0.25226554 -0.51905423 -0.3235312 0.038939636 -0.21856737 -0.2633558 0.0053078397 0.11416636
0.08991333 0.07855553 0.09353466 0.7146775 -0.30245024 -0.38794702 -0.18908581 -0.24462037
-0.48339564 -0.58235043 -0.352652 -0.6064301 -0.007718473 -0.10330328 0.16230778 0.1792627
0.23520204 0.16619822 0.13964516 0.17780949 -0.04134348 0.02248321 0.18537557 -0.1421976
0.083351694 0.10242239 0.2554081 0.66726416 -0.12974319 -0.023068802 0.03805703 -0.2880356
-0.32413045 -0.33693594 -0.25531214 -0.11666676 -0.18069357 -0.54566604 -0.3084652 -0.13169876
-0.09168323 -0.39128512 -0.37056857 -0.3339868 -0.4748651 -0.7703613 -0.36303905 -0.2979266
-0.030676771 -0.5380333 -0.33611485 0.35726634 -0.30967742 -0.32469928 -0.3977304 -0.6133287
-0.2559801 0.06537317 -0.029467149 -0.38844055 -0.12825789 -0.06955067 -0.010884978 0.12305482

lstm.weight_hh_l0 f4 [128, 32]
00000000: 7a74 513d d18f 6b3d 09a3 08be dd3d d03a
00000010: c316 c0bb a67d 963d b17c 283d 7c58 92bd
00000020: 942a 9bbd 649f 483e 3a51 343e 3ee5 203e
00000030: 30b5 ac3d 8f1a 2fbd 3dba 1b3e 3494 aa3c
00000040: 8c99 59bc f793 06be 0acb e53c e241 e83d
00000050: dee7 4bbe 5ba4 c8bd 08e3 0a3e 331d d2bd
00000060: 101f 443b 3b59 07be 668a 10be 8451 223e
00000070: 83a5 8a3d 0de6 70bd a936 6d3d 3083 173e
00000080: d290 8bbd 249a edbd fe3d e33d 63ea cb3d
00000090: 3151 2fbc 1c70 67bd 02f4 843d 2a2a 0f3d
000000a0: 7b21 433e e10a 933c 2976 903e a999 a13c
000000b0: 0365 753c 4d12 b5bd 9057 bfbc 2f8b 3a3e
000000c0: 90c8 34be 32b9 00be b35f 9abe 3943 3ebd
000000d0: 6ee1 4dbe 0622 773c 31ea ca3d 1b4b c7bb
000000e0: 7743 d9bc 8f8c b13d f95f 68be 5f6d 23be
000000f0: 3eae 6bbd ce9f 49bd 4371 67be 99e6 12be
00000100: d069 463d baa6 803d c2b9 493d 1422 e33e
00000110: ad7a 643d bd94 c13d d649 e1bc 91a0 783e
00000120: 7f3e 9c3d 63b9 88bd 5b04 cf3d 7223 2abd
00000130: 53c2 72bd b44a 58be 3a6b 723b b7f3 0a3e
00000140: 653a 5bbb 8176 c2be c310 3fbe f5c8 463c
00000150: b501 30be 2c76 bb3d 1988 c63d 1e04 7dbe
00000160: e7ae a8bd 9bcd e43d 3c12 c0bc 48b4 33be
00000170: c996 50bc 708b 54be e326 cbbe fc7e af3d
00000180: fe7f 833d 6839 0c3c 3701 1a3d c74f 29be
00000190: c2e1 4abd 521b 87bd 78d0 1bbe 7078 b0bd
000001a0: 9814 753d e42c 323e 2410 2b3e 4a1b e03c
000001b0: ceb4 40bd 8495 86bd 17ef a33d c1b7 4f3e
000001c0: 7c70 96bc 8e14 163e 6380 ac3c 8b6e 1abd
000001d0: 450e 163e 85c5 9f3d e64a 943d fe5c e03d
000001e0: a573 72bd 1787 e8bd c9de 513d 10c4 5dbd
000001f0: c21a 3f3e 4dd1 913d a2e0 053d 36d4 b9bd
00000200: a564 db3d e85a 833c 59de 753d bfae 15be
00000210: 4cd7 db3d 9075 26be a3cb 8dbd 7c6a babd
00000220: ab50 d5bd 5f17 193e bf7f a53d e6cd 05bb
00000230: b023 ce3d e480 143d 8403 c0bd 45ef 21be
00000240: 1488 03be 400c 9f3b de6b b2bd ddef 0dbc
00000250: e1c2 f6bc 66a9 95bd cab6 80bb 9934 e4bd
00000260: a8ee 32be 8196 51bd 9263 46be fe5e b83d
00000270: 0049 3a3c 69e5 d3bd 456b cabd a0a0 80bb
00000280: 9b08 c9bd 7548 4a3e 667d 1ebe 3559 fd3c
00000290: b0ba 213e 4987 9abd 0631 5c3e e4e0 b03e
000002a0: b6e7 4c3e e8d5 1fbe 966b e4bd 11c4 1cbc
000002b0: 1c61 ab3d 3231 0c3e dd97 b1be 653e 44be
000002c0: d5d2 e33c 2b9d f43c 9e98 05be a5e4 673d
000002d0: d7ce dbbd c380 303e b361 43be 0b0d 91be
000002e0: 03d4 853d 319c 1dbd 019d 2b3c 66ab 93bd
000002f0: b25e 5cbe 1e34 74be 6fca 29be 87ca e93d
00000300: b20d 61bd 7862 663e b79a 233c eda8 8d3d
00000310: a98e 07be fe83 5b3d 84ab 61be d2dc 263e
00000320: 83ca 6e3e 86d1 543e ef83 483d ebc7 e73c
00000330: 3077 4bbe cfa5 a8bd 16e8 d4bd a352 9e3d
00000340: 83e3 49be 512f 37bd f498 c63d caa0 933d
00000350: 332f 693e 5563 5fbe ace4 dfbc 5490 2bbd
00000360: ab4d 0abe f974 cabc 8a96 1ebe d1c1 d33c
00000370: 4380 783e 3517 1dbe 1275 c3bd 181f 9c3c
00000380: 3e4f 2a3d 3647 0c3e 4e17 38be cdcb f03d
00000390: 9792 09bd b837 08be fbc4 60be a334 723d
000003a0: c85d 28bc b3d7 8e3c bc06 ccbd 7196 01be
000003b0: 1c2f 8f3d e721 1dbe 84f0 883d 9600 3e3d
000003c0: df52 cb3c cf76 28be ff00 41bc 7a4c f4bd
000003d0: 8a25 cabd 430d 273e 3ed8 053e 7b3a 5cbd
000003e0: 3214 9b3d 9c71 0d3e 2a77 6e3c 524f 1abe
000003f0: b995 f23d 5dc9 d63c e800 753d 3f24 563d
0.05113647 0.0575102 -0.13343443 0.0015887577 -0.0058620884 0.07348184 0.04113454 -0.07145783
-0.075764805 0.19592053 0.1760911 0.15712449 0.08432996 -0.042749938 0.15207763 0.020822622
-0.013281237 -0.13142382 0.028050918 0.11340691 -0.19912669 -0.09796973 0.13563168 -0.102594756
0.0029925741 -0.13217632 -0.14115295 0.15851408 0.0676985 -0.058813144 0.057913456 0.14796138
-0.06814732 -0.116016656 0.110958084 0.09956815 -0.01070051 -0.0565034 0.06491853 0.03495232
0.1905574 0.017949523 0.2821515 0.019726591 0.014977696 -0.08841381 -0.023357183 0.18217157
-0.17654634 -0.12570646 -0.30151138 -0.046450827 -0.20105526 0.015083795 0.0990795 -0.0060819513
-0.026521428 0.086693875 -0.2269286 -0.1595969 -0.057539217 -0.049224667 -0.226018 -0.14345779
0.048440754 0.062818006 0.049249418 0.44361937 0.055781055 0.09452198 -0.027501028 0.24280001
0.07629108 -0.06675985 0.101082526 -0.04153771 -0.059267353 -0.21122247 0.0036990182 0.13569532
-0.0033451554 -0.37981036 -0.18658738 0.012132873 -0.17188151 0.09153399 0.09693927 -0.24708602
-0.08236485 0.11172029 -0.023446195 -0.1754924 -0.0127312625 -0.20756316 -0.39678106 0.08569142
0.06420897 0.008558609 0.037598815 -0.16534339 -0.049531706 -0.06597008 -0.15216243 -0.08616722
0.059834093 0.17399937 0.16705376 0.027356762 -0.04704743 -0.065714866 0.08004587 0.2028494
-0.018364184 0.14656278 0.021057313 -0.03770308 0.14653881 0.07801346 0.07240848 0.10955237
-0.05919232 -0.11353891 0.051237855 -0.054142058 0.18662551 0.07119999 0.03268493 -0.09073679
0.10712556 0.016034558 0.0600265 -0.14617442 0.10734424 -0.16255784 -0.06923606 -0.091023415
-0.10415777 0.14950322 0.08081006 -0.0020416914 0.100654006 0.036255732 -0.093756706 -0.1581393
-0.12844878 0.0048537552 -0.0871198 -0.008663145 -0.030122222 -0.07307701 -0.00392804 -0.11142845
-0.17473853 -0.051168922 -0.1937392 0.09002493 0.011369944 -0.10346491 -0.09883741 -0.003925398
-0.098160945 0.19754203 -0.15477523 0.030926326 0.15793872 -0.07545335 0.21503076 0.34546578
0.20010266 -0.15608943 -0.11153333 -0.00956823 0.083681315 0.13690642 -0.34686175 -0.19164427
0.027810493 0.0298601 -0.130465 0.056614537 -0.10732811 0.17236619 -0.19080238 -0.28330263
0.06534579 -0.038479034 0.010474444 -0.07210426 -0.21520498 -0.23848006 -0.16581129 0.11415582
-0.0549447 0.224985 0.009985617 0.06916986 -0.13238014 0.053592674 -0.22038084 0.16295174
0.2331944 0.20783052 0.048953947 0.02829357 -0.19869685 -0.082347505 -0.103958294 0.077306055
-0.19715695 -0.04472286 0.09697142 0.072084025 0.22771911 -0.21815236 -0.027330719 -0.04188569
-0.1350619 -0.02471398 -0.15487114 0.025849255 0.24267678 -0.15340884 -0.09543814 0.019057795
0.041579477 0.1369904 -0.1797764 0.11757622 -0.033587065 -0.13302505 -0.21950142 0.05913223
-0.010276265 0.017436838 -0.09962222 -0.12655045 0.06991407 -0.15344964 0.066865 0.046387278
0.02481979 -0.16451572 -0.011780023 -0.11928649 -0.09870441 0.16313653 0.13070771 -0.05376671
0.07572211 0.1381287 0.014554778 -0.15069321 0.118449636 0.026219064 0.059815317 0.05228066

lstm.bias_ih_l0 f4 [128]
00000000: 44d5 8c3d 089e 373c e176 1c3f d712 11be
00000010: b90f 4bbc fc79 bc3e 54eb b03e cdbf 9ebc
00000020: 3421 9a3e 5dc7 3c3e dd43 b53d 4b41 623e
00000030: 51eb 093f 2705 af3e 8b05 953e e605 d43e
00000040: 98d1 873e 87ea bb3e e835 2c3e 35ae 20be
00000050: 807f bf3e fe89 d73d 2278 fd3e 710a ce3d
00000060: a172 a03e 36ff 143f b754 8a3e e46f bd3d
00000070: 0ea6 163f f862 47bc 758c 473d df00 153f
00000080: 46eb cd3c b3c3 2ebe fb1c 7dbe 71a7 ee3c
00000090: 851a 61be d1a1 06be 4c98 10bd 4d2e 253e
000000a0: 98ee e2bd b579 0dbd 0899 2bbe 5eec cb3d
000000b0: 453c 9bbe 4ee3 64bd be83 91bd 06aa fabd
000000c0: 08c9 20be 08c1 cf3d eeb7 943c 5b1d cebd
000000d0: 294e bcbd b6ce 13be aa11 9bbe 2706 60be
000000e0: c9ab 703d 12ed f73c 2ab6 8ebe 7cde 20be
000000f0: c274 11be 5246 d43d 9cc6 0f3e 560a 76be
00000100: 4557 c1bd 396c cd3d 6e3a 97bc 56e7 2cbd
00000110: 7582 813d c677 2fbc 5dc4 473d 0a45 083e
00000120: 9bf7 08bc 8050 f2bc 7b6e 363c 8428 8b3c
00000130: 289f 293d 2848 0abd 0eed 133d 400c 15bd
00000140: 4d25 a9bd 2436 823c 557c 2d3d 3a37 febc
00000150: 88e2 f23c 6783 aebd 9747 353d 6b5c f8bc
00000160: c293 adbd a8b4 b5bd 0f5c de3b 3abf a13c
00000170: d14e 843c 86c6 0ebd 09b0 1bbe 912a a83d
00000180: 0fc8 ecbd 5c73 433d a322 153f 0ef8 283e
00000190: 7b1f 8ebd e965 813e df97 643e af0f e9bd
000001a0: 4e67 823e 4a5e 9abb 35c1 01bd aebd 0c3e
000001b0: bfdf d43e b18d 193e 05bd 8c3e 66fa c43e
000001c0: dd50 223e 3a45 f03d 8fc1 4abd d0e1 5fbe
000001d0: 1ecf be3e 4d09 a0bd 3f3e c23e f461 51be
000001e0: 5eb4 b03e 4146 073f 7659 633e 9a67 803d
000001f0: ebfa 663e 5824 b3bd 76eb 033e 7608 013f
0.06876615 0.011207111 0.61118895 -0.14167343 -0.012393885 0.36811817 0.3455454 -0.019378567
0.30103457 0.18435426 0.088508345 0.2209522 0.5387469 0.34183618 0.2910579 0.4141075
0.26527095 0.36702368 0.16817439 -0.15691455 0.37401962 0.10524367 0.49505717 0.10060585
0.31337455 0.5820192 0.27017757 0.09249857 0.5884713 -0.012169592 0.048717935 0.58204454
0.025136601 -0.17066841 -0.24718086 0.029132577 -0.21982773 -0.13147666 -0.03530149 0.16130944
-0.110806644 -0.034539897 -0.16757596 0.09957193 -0.3031942 -0.055880837 -0.07105206 -0.12239461
-0.15701687 0.1014424 0.01815411 -0.10064193 -0.09194595 -0.14434323 -0.30286914 -0.21877347
0.058757577 0.030264411 -0.27873355 -0.15709871 -0.14204696 0.10364975 0.14040607 -0.2402738
-0.094404735 0.100304075 -0.018460479 -0.042212807 0.06323711 -0.010709709 0.04877125 0.13307586
-0.008359815 -0.029579401 0.011134739 0.016987093 0.04141155 -0.03376022 0.036114745 -0.036388636
-0.08259068 0.015894957 0.0423549 -0.031032193 0.029649034 -0.08521157 0.044257727 -0.030317506
-0.08475448 -0.08872348 0.0067858766 0.019744504 0.016150864 -0.034857295 -0.15203871 0.08211244
-0.11561596 0.047717437 0.58255976 0.16500875 -0.06939598 0.25273064 0.22323559 -0.113799445
0.2546944 -0.004710947 -0.031678397 0.13744232 0.41576955 0.14995457 0.2748796 0.3847229
0.1585116 0.11731954 -0.049500998 -0.21863484 0.37267393 -0.07814274 0.37938115 -0.20447522
0.3451261 0.52841574 0.22202095 0.062697604 0.22556655 -0.087471664 0.1288279 0.50403535

lstm.bias_hh_l0 f4 [128]
00000000: 9b7c 133e 6e0a 4a3d 0a78 293f 222a 88bd
00000010: e153 99bd 0315 dc3e 6428 843e 767b 973d
00000020: 2a68 af3e e79a c93d e804 0a3e 3142 80bd
00000030: cf50 bc3e e23d 283e 7a95 8b3e 78c2 f93e
00000040: 116e 293e ade3 b13e b2d9 683e 47e0 a6bb
00000050: 813e d53d 1406 2c3e 11de 053f db8c 113d
00000060: 5bd0 a93e dbda 073f b49d e13e db09 7e3e
00000070: 82bb 273f 8c38 ac3c 7a9e f23d c147 d93e
00000080: c393 92bd e4c2 8abd e68a 41be 2b26 ddbc
00000090: 0e9e 6cbe 4490 7abe 8ab8 d33c c53f 4d3c
000000a0: 18b8 a6bd 83a0 debc 3f58 3fbe 3da1 05bd
000000b0: e3f4 a4bd b3cc 763c e12a 01be 10f2 bdbd
000000c0: ec4e 84be a819 6cbe 93a5 98bb 15f9 80bd
000000d0: 5424 82be 835f 09be 64ab 8dbe 886e 8abe
000000e0: 0f49 9e3d 9bd0 63be 5a54 c0bd 7796 6cbd
000000f0: dc01 69be 4f09 183d a20e 7a3d ce3d 6cbe
00000100: cdbd eb3b c570 003e 1424 35bb b74d 923d
00000110: 2d01 52bd 3c65 603c d9f7 8bbc 2294 b43d
00000120: e734 873d 2bf1 ac3c 25ad 8c3d bc93 dbbc
00000130: 2087 27bd b869 e73a eafd 49bc 3c09 fa3c
00000140: 9b8e 743b 73c9 9abd e204 b1bd e86e d93d
00000150: f960 49bd 8387 b03d eb30 2abd bd59 90bd
00000160: 0411 ef3b d62d f23d e303 bebc a389 8dbd
00000170: d5ce 49bd be74 c5bd 97ac c13d af53 a6bd
00000180: a721 08be 9fda 143b c387 bb3e a9e3 adbd
00000190: 4bc2 85bd e54f 023f 438f e63d 3bb0 633e
000001a0: b837 953e 8c87 723e 121e dc3d 7a8e f63d
000001b0: 1cec f73e 7ed6 f13d 1b9f 9f3e fede b63e
000001c0: 92ae 903e b673 b23e 4222 d03d 8f93 dcbd
000001d0: 00f0 b83e 4aa3 4c3d ddc1 033f 93d4 0ebc
000001e0: 2232 9a3e 0fc8 c03e f732 8a3e 662b 703e
000001f0: d50f 033f 1b98 9ebc fbe5 ebbd 93eb b03e
0.14403002 0.049326353 0.6619879 -0.06648661 -0.07486702 0.4298478 0.25812066 0.07396595
0.34259158 0.098439984 0.13478434 -0.06262625 0.36780402 0.16429856 0.2726248 0.4878118
0.16545893 0.34744015 0.22739294 -0.005092654 0.10412312 0.16799194 0.5229197 0.03553472
0.33166775 0.5306832 0.4406563 0.24808447 0.6552049 0.021023057 0.11846633 0.42437556
-0.071570896 -0.06775454 -0.18900642 -0.026995739 -0.23107168 -0.24469095 0.025844831 0.012527411
-0.08140582 -0.027176147 -0.18686007 -0.032624472 -0.08054521 0.015063453 -0.12614013 -0.092746854
-0.25841463 -0.23056662 -0.00465841 -0.062975086 -0.2541834 -0.13415341 -0.27669823 -0.27037454
0.077287786 -0.22247545 -0.09391089 -0.057760682 -0.22754616 0.037118252 0.06104911 -0.23070452
0.007194257 0.12543018 -0.0027639912 0.07143729 -0.051270653 0.013696011 -0.017085956 0.088173166
0.06601887 0.021111092 0.06868962 -0.026803844 -0.04090035 0.0017655408 -0.012328604 0.030521981
0.0037316445 -0.07557955 -0.086435094 0.10616857 -0.049164746 0.08619597 -0.041550558 -0.07048366
0.0072957296 0.11825149 -0.023195213 -0.06911018 -0.049269516 -0.096414074 0.09456747 -0.0812143
-0.13294087 0.0022713316 0.36627015 -0.08490688 -0.06531199 0.5090316 0.11257794 0.22235195
0.29144073 0.2368452 0.10747923 0.12038894 0.48422325 0.11808489 0.31176075 0.35717005
0.28258187 0.34853905 0.10162784 -0.10770332 0.36120605 0.049960412 0.51467687 -0.008717674
0.30116373 0.37652633 0.26992008 0.23454055 0.5119603 -0.019359639 -0.11518475 0.3455473

lstm.weight_ih_l1 f4 [128, 32]
00000000: c6c7 63bd 2530 aa3e 80ca fabc e4e3 303e
00000010: b331 fdbd 3dca 01be ffe5 2d3c 0216 1f3e
00000020: 406c 233e e7ca 85bd 54a5 c03c b44c 59be
00000030: 5ea1 4abe 35db ef3d 4e7e cb3d fe7f 443e
00000040: bb7f 87bd 17c1 983d b2cc 043d 8c54 3bbd
00000050: 7ab5 173e 808a 883e 3423 893c 5e0b 38be
00000060: 4b23 adbd 3da3 2d3d 8cd5 2ebd c755 cdbd
00000070: fc4e 8dbc 14c3 3ebe 0324 a93b a7a0 323d
00000080: 615c 41bd 8f55 613e ef8e ddbd 0a6d 883c
00000090: e6da 5a3e dd67 1e3d edc9 db3c 26e3 0b3e
000000a0: 5289 0ebe deb1 033b 791a a73d 5b80 9bbc
000000b0: 4397 393d f2cb 91bd 2dbf 56be c78b 53be
000000c0: a28e b5bd 1692 5dbd 6926 23bd 3571 303e
000000d0: d750 62bd 5555 543d 00e9 54bc 8f9a 33be
000000e0: 6c89 19bd da79 89be 131f 5abd 00ef 32be
000000f0: c910 06be a9b1 2fbe da5a a33b 481d a2bc
00000100: fd07 0dbe 0445 9bbd 8cc5 253e 0a59 c5bd
00000110: 5f6d 17bc 2af4 b1bd 6961 2e3c 517a ec3d
00000120: 7304 633d 9e88 1e3e 0744 813d c660 45be
00000130: 339f 25be cffd b4bd 8cf5 873d c5df 843e
00000140: 91f3 42be cfe0 6ebe f0f3 3dbe 863d 303e
00000150: 1655 17bc 145f 4d3e 5b54 b6bd d2e3 dbbd
00000160: 983d 883d 3969 12bd f900 9bbd a281 11be
00000170: 87cd b639 a132 79be eb06 c8bc 3ed9 613e
00000180: 818f 1bbe aace 87be a20b d43e 44f0 4bbd
00000190: 76c3 36be 50a1 0bbe dc76 4cbe 5aa4 49bd
000001a0: f68c eebc c0aa 9f3e 4b5d a3bc ad95 113d
000001b0: 2e5e 75be 9987 24be 4ada 903e 30af 783e
000001c0: 6a36 503e 5563 c7bc b586 0fbd 3dd1 8d3e
000001d0: 65ba f0bc e48b b7bc 6e9b 0d3e 5c07 3bbe
000001e0: c3de 69bd 3d25 b03e 0b58 24be 2234 bdbd
000001f0: a9a0 0c3e 1927 20be 04ab 7bbe 7986 8abb
00000200: cd94 ca3d 0700 05be 0e81 a3bd 2bfe 953d
00000210: e947 ae3d 9b70 a23d dd88 703d 8c83 eb3d
00000220: 219f 403d e094 473e a3b3 36bd 9eeb ea3d
00000230: d6e4 e5ba c396 85bd 859c 903c d178 143e
00000240: b13f 863d 6c34 a6bd 3127 e63d 14b3 c33d
00000250: 71a4 e6bd 03c6 3cbe 3a5b 28bd e5db 363d
00000260: 10a5 f63c 6cd1 14be b653 6dbc b093 773c
00000270: 4734 1f3e 0219 20be 0747 c33d 00a0 05be
00000280: ff98 4f3c 09bf 2b3e d4c2 5c3c 493f d6bd
00000290: fe71 b03a 48fd 00be f95e aebd 308b 0e3e
000002a0: e823 e5bd 82be 8a3b 41ba bfbd 8c9d 72bd
000002b0: 3ac7 95bc 7edf 923d 7d79 8b3d cf96 693d
000002c0: ea2a 433b 2ef3 ed3d a768 a43d dc10 a6bc
000002d0: dbb8 a13c 6a9a f03d 476d 14be 0c32 1abd
000002e0: 2d0a 58bd a335 393e bec8 d13c 9e45 cebd
000002f0: 0389 90bc 7db0 873b 3e60 b53d 2fcf bc3d
00000300: ffc0 283e d798 8ebd 1060 34bd d6bd 003e
00000310: c795 d4bc 5de8 fabb dc81 fcbc ae34 0a3d
00000320: 95a3 ba3b 397d 4abd 8778 1b3e a377 0ebe
00000330: bd56 ba3d b1d2 0c3e 6607 2d3c f4c0 983d
00000340: be3c 36bd b849 ac3c de3e 0f3e 65d3 13bd
00000350: 03a0 2c3e 0d4f efbd f496 19be 056b 0b3e
00000360: e09c 2dbe c495 813d b165 83bd e682 6a3d
00000370: c7db b93c 4b57 13bd 443d 23be 7a4d 193e
00000380: b81b bcbd 536f 813e b152 e6bd 70f1 103e
00000390: 0041 f7bb cfe3 9cbe 7058 803e 5b91 4f3e
000003a0: f6cd dc3d 4a94 a5bc de34 163e aa55 81bd
000003b0: e3e9 243b 57f1 0cbd f8a5 f83d 3f01 ae3c
000003c0: fac0 60be d7f1 2bbe 769c bdbd aea8 013e
000003d0: 2fdb 14be 2393 90bd 2aac a8bd 301c 41be
000003e0: 7ba0 26be 1bdf ad3d 2941 65bd 9d7f 37bd
000003f0: 4197 e73c 330e 4bbe 490e 383c 9796 cdbc
-0.05561044 0.33239856 -0.030614138 0.17274433 -0.12362995 -0.12674804 0.010613917 0.15535739
0.15959263 -0.06532841 0.023516335 -0.21220666 -0.19788119 0.11711732 0.099362 0.1918945
-0.066161595 0.07458704 0.032421775 -0.045734927 0.14815322 0.26668167 0.016740419 -0.17973086
-0.08453997 0.042392004 -0.042684123 -0.10026126 -0.017249577 -0.18629104 0.0051617636 0.04361024
-0.04720724 0.22005294 -0.10818278 0.016653556 0.21372566 0.03867327 0.026829684 0.13660869
-0.13919571 0.002009503 0.08159346 -0.018982103 0.04531027 -0.071189776 -0.20971365 -0.2065879
-0.08865096 -0.054094397 -0.039831553 0.17230685 -0.055252876 0.05183919 -0.012995005 -0.17539428
-0.03748457 -0.26850778 -0.05325229 -0.17473984 -0.1309234 -0.17157616 0.0049851956 -0.019789353
-0.13772579 -0.07581523 0.1618864 -0.096361235 -0.009242385 -0.08689149 0.010643342 0.115467675
0.055424165 0.15481803 0.06311803 -0.19275197 -0.16174011 -0.08837473 0.06638631 0.25951973
-0.19038226 -0.23327945 -0.18550086 0.1721097 -0.009236595 0.200558 -0.08902808 -0.10736813
0.06652373 -0.03574488 -0.07568545 -0.14209607 0.00034866875 -0.2433572 -0.024417361 0.22055528
-0.15191461 -0.2652486 0.41415125 -0.049789682 -0.17848 -0.13635755 -0.19967216 -0.049229003
-0.02911995 0.3118496 -0.019941946 0.035543133 -0.23961708 -0.16067351 0.2829154 0.24285579
0.20333257 -0.024339357 -0.035040576 0.276987 -0.029385755 -0.022405572 0.13828823 -0.18264526
-0.057097208 0.3440341 -0.1604921 -0.09238459 0.13733162 -0.15639915 -0.24576956 -0.004227456
0.09891663 -0.12988292 -0.079835996 0.07323869 0.085098095 0.07931634 0.058724273 0.114997
0.047026757 0.19490385 -0.04460491 0.11470722 -0.0017539512 -0.06522896 0.01765276 0.14499213
0.06555117 -0.081154674 0.11237944 0.09555641 -0.112618335 -0.1843491 -0.041102625 0.0446433
0.030108005 -0.14533013 -0.01448529 0.015110895 0.15547286 -0.1563454 0.09535032 -0.13049316
0.012670754 0.16772093 0.013474185 -0.104612894 0.0013461707 -0.12596619 -0.08514208 0.13920283
-0.11188489 0.004234136 -0.09361697 -0.05923228 -0.018283475 0.07171534 0.068102814 0.057028588
0.0029780217 0.116186485 0.08027773 -0.020271711 0.019741466 0.11748202 -0.14494811 -0.037645385
-0.05274408 0.18086867 0.025608417 -0.10071872 -0.017643457 0.004140912 0.08856247 0.09219205
0.16479872 -0.06962746 -0.044036925 0.12572417 -0.025950326 -0.0076570944 -0.03082364 0.033741646
0.00569577 -0.049435828 0.15182696 -0.13912825 0.09098575 0.13752247 0.010560846 0.07458678
-0.044491522 0.021031246 0.13988826 -0.036090273 0.16857915 -0.116849996 -0.1499899 0.13615043
-0.16954374 0.06327394 -0.064158805 0.05725374 0.022687806 -0.03597192 -0.1594134 0.14970961
-0.091849744 0.25280246 -0.11246241 0.14154601 -0.0075455904 -0.30642554 0.25067472 0.20270292
0.107814714 -0.020212311 0.14668605 -0.06315167 0.0025163821 -0.034409847 0.12141031 0.021240829
-0.21948615 -0.16791473 -0.09258358 0.12662002 -0.14536737 -0.07059314 -0.08235963 -0.18858409
-0.16272156 0.084898196 -0.055970345 -0.044799436 0.028270366 -0.19829635 0.011233875 -0.02509622

lstm.weight_hh_l1 f4 [128, 32]
00000000: 2490 d93d 643e 533c d9bd 09be 2a1b 623e
00000010: 4e61 63bd 4ca4 4dbe 8fcc d8bc eeef f53d
00000020: 7408 f2bd ddca 203d 97eb eebd 14bc a43b
00000030: 786c d43b 124f 253e 547d 8c3d 8575 6dbe
00000040: 0cbe 733c b4d9 36bd eae5 d9bd 6b09 b63d
00000050: 9a50 e03d bd0d 78bd 678e c0bd 036f 853e
00000060: 8ade 36be 3285 5dbd 3ede 143d f955 a2bb
00000070: 899d da3d c2d9 0d3e c47b 363e 54de c3bd
00000080: 08c3 c23c 8201 503e 48a8 c33c e297 a6bd
00000090: 27b2 81bd 0e5d 33be ae17 ffbc 1033 443d
000000a0: c077 c03d b72f f1bd a29c 26bd 0d6d 84bc
000000b0: ae31 6dbe 0ae9 d33d 1f90 8cbe 9cce 783a
000000c0: b931 57be 7d27 753d 3233 6bbd 9031 9bbd
000000d0: 634d 56be d833 7e3e 2713 0b3e 6a8a a03e
000000e0: b41c e83d b4ca 8d3e 2dec a03d a2b6 033e
000000f0: 8d53 9a3d a136 1b3e c29f 53bd 3a82 93bd
00000100: 4b33 343e c03c 843e b42a 913d 8e65 c43d
00000110: 7054 4c3e 7980 46be 0e5e 9c3d d228 7e3e
00000120: cc97 c8bd 54dc 9f3c 8859 2f3e f735 f3bd
00000130: b9b3 16be da85 233d 2678 e0bb d37f 56be
00000140: 6c08 35be b6e5 34be 0481 96bc f46c cb3b
00000150: 392b 34be 5ced 63be bcd3 d9bd 9c27 a53d
00000160: 9f68 dd3c 9479 6d3d 8474 493e 7987 79bd
00000170: a77e 5cbd 657a 493e ef77 2e3d 7ef4 783c
00000180: 0367 bbbd 8fba f33c 6d36 97bc dd78 43be
00000190: d78b ec3d 0fe0 00be e8fc 163e 8682 90be
000001a0: 339e c13d 8329 0c3e 1e00 a33d 2c57 553d
000001b0: 8193 1cbe 9fc6 063c b288 ec3c 86b4 8bbd
000001c0: bb6c 2f3e c265 94bd 813f e6bb 307e 57b7
000001d0: 7b28 d9bd 572f 633e 5c65 1b3e 706b c0b8
000001e0: a2da 183d 43cf a53e d40a af3d ad72 a43c
000001f0: 736c cdbd 1c0a 8cbd 113f dabd 8360 57be
00000200: aa43 8dbd 3de0 d4bc 137c 3f3d 94a6 12be
00000210: 535a fc3d eece eabd a7ad de3d d5e5 473d
00000220: fb06 85bd 1d45 53bd fc36 a03c 36f7 3d3e
00000230: 67c1 aabd d912 823c 4977 57be ef97 4a3d
00000240: 24b4 1ebe d874 14be a1d4 b13d c4aa 0f3d
00000250: 0676 f1bd ad57 b3bd 6cdb 3f3e 10cb 493d
00000260: 3f39 0a3e 54ae 443c 33ab a73d fd0a bebd
00000270: 1203 ee3d 9c95 c5bd f440 ffbc bf0a 2bbe
00000280: e616 84bd 2c86 dabd 034e 03bc 6777 ffbd
00000290: e01a f3bd 8732 52bd ae14 0b3e 356b 83bd
000002a0: 6567 08be a9ed 58be 71e6 2bbe 9f8a de3d
000002b0: 9918 1f3d bbac 8bbd 7ba5 b0bb 06e0 2bbe
000002c0: dfdc 983b e26a 443e a715 ea3d d7e8 f9bc
000002d0: a0e5 02be 9f0f 1bbc 4dd9 95bc dd23 88bd
000002e0: e05e 0ebd 7fdd 3bbd c7d2 793d ae3a c8b8
000002f0: d2d4 abbd ed1d 60bc 3065 bb3b 309a 04be
00000300: 3e36 2abe 6340 bb3d eb17 1bbe 319a 123e
00000310: 27cb 183d bf2f 423d ded7 d13d 0365 ed3d
00000320: 14ac bdbd 9f8a 023e d03a d73d 5eb7 123e
00000330: 6519 35be 6885 7d3d 0155 123e 02d1 e8bd
00000340: 312c 40be 238d 1fbd 4d71 2cbe 4e9e bdbc
00000350: 0724 643d ac38 823d 84fc d33d 7291 cf3d
00000360: a9a5 83bd 3111 e33d 9adc 8f3d d5b8 32be
00000370: a517 f4bd df58 043e 4448 403d 27ef 1ebe
00000380: e33d 623e f12b d73e fa67 86be fa7b 5e3d
00000390: f6c9 083e a4ba 90be 2a2d 5a3d 706a 2e3d
000003a0: 7478 b2bd 65d7 cd3d 8fda a63b 505d b13e
000003b0: ce64 8cbe d023 22be 47f6 9cbd 3f66 48be
000003c0: 9d59 d5bd 32cd 6bbd 26fd a9bb fe81 91be
000003d0: 49a9 40be 6141 0cbd ebe2 b3bd e078 373e
000003e0: 6a79 593e 495c 973e ec5c cf3d 9942 993c
000003f0: 19cd cbbd 2760 b43e 172d 973d ab49 fd3c
0.10623196 0.012893293 -0.13451327 0.22080675 -0.05551272 -0.20082206 -0.026464729 0.120086536
-0.118180186 0.039255966 -0.11666029 0.0050273035 0.006482657 0.16143444 0.06859842 -0.23189361
0.014876854 -0.04464121 -0.10639556 0.08888515 0.109528735 -0.060559977 -0.09402161 0.26061258
-0.1785833 -0.054082103 0.03634476 -0.0049540964 0.10674579 0.138526 0.1782065 -0.0956389
0.023774639 0.20313075 0.023883954 -0.08134438 -0.06332808 -0.17515966 -0.031139221 0.04790026
0.093978405 -0.11776679 -0.04067672 -0.01616528 -0.23163483 0.10347183 -0.27453706 0.00094912364
-0.21015061 0.059852112 -0.05742187 -0.07577813 -0.20927958 0.24824464 0.13581525 0.31355602
0.113336 0.27693713 0.07857547 0.12862638 0.07535467 0.15157558 -0.05166603 -0.07202573
0.17597692 0.258276 0.07088223 0.095896825 0.19954085 -0.19384946 0.07635127 0.24820259
-0.09794578 0.01951424 0.17123997 -0.11875527 -0.14716996 0.039922573 -0.0068502603 -0.20947199
-0.17678994 -0.17665753 -0.018372066 0.0062080566 -0.17594613 -0.22258514 -0.10636088 0.080641955
0.027027426 0.057977274 0.19673353 -0.060920212 -0.053831723 0.19675596 0.042594846 0.01519501
-0.09150507 0.029752044 -0.01845857 -0.19089074 0.1155011 -0.12585472 0.14744914 -0.2822458
0.09454002 0.1368771 0.07959007 0.052085087 -0.15290643 0.008226066 0.028873775 -0.068215415
0.17131321 -0.07245971 -0.007026613 -1.2844379e-05 -0.10603424 0.22186027 0.15175384 -9.175285e-05
0.03731788 0.3238469 0.08546987 0.020074213 -0.10030451 -0.06837866 -0.1065656 -0.2103291
-0.068976715 -0.025985831 0.046749186 -0.14321357 0.123219155 -0.1146525 0.10872965 0.04880317
-0.06495472 -0.051579583 0.019557469 0.18551335 -0.0833767 0.015878128 -0.21041597 0.0494613
-0.15498406 -0.14497697 0.08683134 0.035074964 -0.11790089 -0.08756957 0.18736047 0.04926592
0.134984 0.012004454 0.081869505 -0.092794396 0.11621679 -0.09647676 -0.031158902 -0.16703318
-0.0644968 -0.106701225 -0.008014205 -0.12473946 -0.118703604 -0.051317718 0.13582107 -0.064169325
-0.13320692 -0.2118441 -0.16787125 0.108662836 0.038841818 -0.06820055 -0.0053908206 -0.16784677
0.0046650018 0.19181398 0.11429911 -0.030506535 -0.12782907 -0.009464174 -0.018292094 -0.066474654
-0.03475845 -0.045865532 0.06099203 -9.547673e-05 -0.08390202 -0.01367901 0.0057188496 -0.12949443
-0.16622254 0.0914314 -0.15145843 0.14316632 0.037303116 0.047408815 0.102462515 0.11591532
-0.09261337 0.12748192 0.105092645 0.14327762 -0.17685468 0.061894804 0.14290239 -0.1136799
-0.18766858 -0.038952958 -0.16840096 -0.023146775 0.05569842 0.063584656 0.10350898 0.10135163
-0.064280815 0.110872634 0.07024498 -0.1745332 -0.11918572 0.12924527 0.046943918 -0.15520917
0.2209392 0.42025712 -0.26251203 0.054317452 0.13358292 -0.28267395 0.053265728 0.042581975
-0.08714381 0.10050849 0.005091972 0.34641504 -0.27420658 -0.15833974 -0.07664161 -0.19570254
-0.10417483 -0.057568736 -0.0051876483 -0.2841949 -0.18814577 -0.034242038 -0.087835155 0.17917204
0.21237722 0.29562595 0.10125145 0.018708514 -0.09951229 0.35229608 0.07381647 0.030918917

lstm.bias_ih_l1 f4 [128]
00000000: e09e 173d 3d15 713d 2c8c 503e 331a 89bd
00000010: 8226 69bd eb8f 023e a889 c1bd fef2 163e
00000020: 7aef 5e3e 9e31 2e3d 3cd1 3a3e fe3b 6d3e
00000030: 4545 003e 3c7a 313e d933 a2bd 409d 853e
00000040: bb89 0f3e 47d1 7d3e b033 c13d 6825 efbd
00000050: c25e cb3d 39e0 d23e 01f1 143e d357 583a
00000060: a7ca 793e 4b69 323e 26a2 c7bd ec1d 883e
00000070: a534 b33e 5fac 2e3d 4389 043e d346 ba3e
00000080: f6fc 7bbd 9388 033d 5fd1 14be d941 6fbd
00000090: 41dd f53d be42 ea3d 54cf ccbd cdc3 86be
000000a0: b251 c43b ddb0 8c3a ad35 49be 7bf5 d73d
000000b0: 3981 02be 8e3a 26be 0d21 12bd fc25 40be
000000c0: 5858 05bd 0d6d 84be ef59 4e3d 5e72 cc3d
000000d0: 3773 12be 24a4 2cbd 5461 17be d662 0d3d
000000e0: 2b62 0cbc cbdf 10be a26b 96bc 6f6d 3e3d
000000f0: c8a6 da3d e7e3 6e3d 1013 1bbd 7a81 6cbe
00000100: 19f4 63bd 5968 653d 2dec 873d cd21 0d3d
00000110: f387 c63d 1229 ff3c ca49 1e3e fa3e 26bd
00000120: 846c babd b9f6 6a3d 1c02 df3d 77d6 88bd
00000130: 8fc2 0abe be07 833d 9d31 063e 6019 03be
00000140: 6f1a 95bd 659c b8bc d93c 5c3d e830 85bc
00000150: 4620 2fbd 03c2 75bd 21a0 983d cf91 9f3d
00000160: 0d50 89bd d0ee e4bc d8af d33d ca74 f0bd
00000170: 3c6d bebd 5481 d73d 063b c73d d498 0bbd
00000180: 7f3c 573e 1c7f 483e 8ca0 913e df9d 9cbd
00000190: 8c55 e0bd 31ca 363e 6194 01be 054f a63e
000001a0: ade1 8b3e 5f86 ce3c 80fd 573e 4108 2d3e
000001b0: 4f7d 57bd 7450 9a3e 7458 8dbb 1f49 933e
000001c0: 4460 3a3e d297 063e 7230 fabd 5ea9 323e
000001d0: ef50 423d 886c a73e 1f1a 8c3e c68f 883d
000001e0: 52ac 863e 6b99 303e 1fb1 d43d 0d54 4d3d
000001f0: 4651 243e 974d 1cbe 6e9a 293e 75f2 5b3e
0.03701675 0.058858145 0.20365971 -0.0669445 -0.05692149 0.12750213 -0.09450084 0.14741132
0.2177104 0.042527787 0.18243879 0.23167416 0.12526424 0.17331785 -0.079200454 0.26096535
0.14017384 0.24786864 0.09433687 -0.116770566 0.09930183 0.41186693 0.1454506 0.0008252833
0.24393712 0.17422979 -0.09747724 0.2658533 0.35001102 0.042644855 0.12942986 0.3638216
-0.06152054 0.03211267 -0.14532994 -0.058412407 0.120050915 0.11438511 -0.10000482 -0.2632126
0.005991184 0.0010733862 -0.19649382 0.105448686 -0.12744607 -0.16233274 -0.03567605 -0.1876449
-0.032554954 -0.2586445 0.050378736 0.09982751 -0.14301763 -0.042148724 -0.14783221 0.034518085
-0.008568327 -0.1414787 -0.01836187 0.046491083 0.10676342 0.058322813 -0.037859976 -0.23096266
-0.05565271 0.056007717 0.06636844 0.034456063 0.09693899 0.031147514 0.15457836 -0.040587403
-0.09102729 0.0573642 0.10889074 -0.06681531 -0.1355078 0.06397961 0.13104863 -0.12802649
-0.072804324 -0.022535512 0.053768966 -0.016258672 -0.042755388 -0.059999477 0.07452417 0.07791483
-0.067047216 -0.027945906 0.10336274 -0.11741026 -0.092981786 0.10522714 0.09728055 -0.034081295
0.21019171 0.19579738 0.284428 -0.07647299 -0.10953817 0.17850567 -0.12654258 0.32482162
0.27320614 0.025210558 0.21092796 0.1689768 -0.052609738 0.30139506 -0.004313523 0.28766724
0.18200785 0.13143852 -0.122162715 0.17447421 0.047440466 0.3269999 0.2736368 0.066680476
0.26303345 0.17246024 0.10385346 0.050128985 0.16046628 -0.15263973 0.16562817 0.21479209

lstm.bias_hh_l1 f4 [128]
00000000: d52c 023e e386 893e 8ff4 8c3e e2a4 a2bd
00000010: 19d0 853d d443 2fbb 06f3 b63d bebc 973e
00000020: 3624 4d3e 9552 0abc e34f 2abc efa3 88bc
00000030: bf70 f23c b069 a63e 095c 7bbd b81a 313e
00000040: 2d4c 0d3e 43b1 323e 1390 ef3d ea71 063e
00000050: 081c 5c3e d39b b53e 7bd8 e83e 5746 3cbe
00000060: 79a0 123e 57a9 283e 5daf 153e 782c e83d
00000070: e571 a23d 8d6b c43d 0ac3 dd3d 2d93 853e
00000080: 4c67 98bd 7abd fb3c f7b9 46bd b795 01be
00000090: 83e7 d1bd ca76 d3bb 5971 883c a511 7ebe
000000a0: e8ac 47be d6a3 35be 9a4d 49bd f7e0 d63d
000000b0: 44c9 bebd ac78 d4bd e8f1 063e 7021 a2bd
000000c0: 5dfe 0abe 301e 10be d3c9 54be 2263 e33c
000000d0: 5cca 79bd 6248 f63c b18f b4bb cc6e f13b
000000e0: 6a66 34be 9b9b 20bd df83 2dbd a355 f8bd
000000f0: 51d6 63bd 5560 22bd 8c0c 23be 723d 6abb
00000100: 5ed6 8c3d 61d3 2bbd 830a 01be cef9 64bc
00000110: 8e49 163d 5a41 c4bc 4fc6 2ebe 5f93 733d
00000120: 9b39 82bb a51f f9bd bff7 ac3b 917f 8c3d
00000130: 4548 c6bd 009c 36bd c455 bbbd b9a5 8b3d
00000140: 2eb3 9b3d 901b 8bbc c09e 75bd 3f47 dcbd
00000150: f41d 2abd def1 5f3d 41f4 a0bd 780b 103e
00000160: 3a45 6a3d d396 7e3d a2cd fe3d 05c7 c93d
00000170: c170 e33c a4dc f4bd e0be 12bd bf45 293d
00000180: 0ebb 273d d030 a43d f16c a7bc 33e1 9ebd
00000190: c131 b2bd e1fb c93b 6edf ebbd e67a a53e
000001a0: 6971 9c3e 592b 443e 7431 3a3e 2f22 793d
000001b0: 594d fb3d 36bc 033e ce91 1d3e e840 a63e
000001c0: 53e9 563e 4040 cf3e b5b7 e43d ff8f f0bd
000001d0: 343e ed3c 1d33 3f3e 2877 c53e 46cf 6b3d
000001e0: bb9f 9e3d 4234 343e 8156 21be d21d 2d3c
000001f0: bcff 3f3e 2bb7 903d f088 273e f9c0 a63e
0.12712415 0.26860723 0.27530333 -0.07941605 0.06533832 -0.002674331 0.08933072 0.29636186
0.20033345 -0.008442541 -0.010395023 -0.016679732 0.029594777 0.32502508 -0.06136707 0.17295349
0.1379859 0.17450432 0.11697402 0.13129392 0.21495068 0.35470447 0.45477661 -0.18386208
0.14319028 0.16470848 0.14617677 0.11336607 0.0793188 0.09590826 0.108282164 0.2608885
-0.07441577 0.030729998 -0.048517194 -0.12654768 -0.102492355 -0.0064533697 0.01665561 -0.24811418
-0.19499552 -0.1773828 -0.049146272 0.104921274 -0.09315732 -0.10374579 0.13178217 -0.07916534
-0.13573594 -0.14074016 -0.20780115 0.027757231 -0.060984 0.030063812 -0.0055102934 0.0073679443
-0.17617193 -0.039210897 -0.04236209 -0.12125709 -0.05562431 -0.03964265 -0.15922755 -0.003574219
0.06876825 -0.041949634 -0.12601666 -0.013975574 0.03669124 -0.023956943 -0.17067836 0.059466716
-0.0039741523 -0.12164239 0.005278557 0.06860269 -0.09681753 -0.044582367 -0.09147218 0.068187185
0.07602535 -0.016980916 -0.05996585 -0.107557766 -0.04153247 0.054674022 -0.07859088 0.14066875
0.057194926 0.062155556 0.12441565 0.09852413 0.027763726 -0.11956146 -0.035826564 0.04132628
0.040949874 0.08017123 -0.02043769 -0.07757797 -0.08700896 0.0061640595 -0.11517225 0.32320327
0.30555275 0.19157161 0.18182927 0.060823616 0.12270612 0.12864766 0.15387651 0.32471395
0.20987444 0.40478706 0.11167852 -0.11746215 0.028960325 0.18671842 0.38567472 0.05757072
0.0774531 0.1759806 -0.15755655 0.010566192 0.18749899 0.070661865 0.16360831 0.325691

lstm.weight_ih_l2 f4 [128, 32]
00000000: b944 e3bd 88a9 b53d f15c dbbc 11d2 2f3c
00000010: 04ad c23d 9502 55be 5f99 89bc ade3 3dbe
00000020: 26e9 103e 4c89 0fbd e33c eb3b 6ced 323e
00000030: 9eac 9a3d 5f5c 3fbe a07a f1bd 4bf2 083d
00000040: c0e4 8c3d d835 493e 5ad8 1b3e 99ae 96bd
00000050: e22a 35be 0cec 563e c9d1 833e 1afb 6c3d
00000060: 4b36 a7bd b755 d2bd 2b98 29be 2300 cdbd
00000070: 2567 f43d 71d8 79bd 3d34 2bbe caf0 2439
00000080: b773 cfbd cbcc 35be 8984 73bc 112d 0a3e
00000090: d01c 4f3d e068 c7bd 631d 253e b3ad c83d
000000a0: a87a d23d 4c74 613e c85f 4fbd f15c b4bd
000000b0: 3a27 50bd a2c5 353e ce5c 0dbe 1867 ca3d
000000c0: 8bc2 a7bd cfac 94bd f314 233e 2ce7 e9bd
000000d0: 587d cd3d 69c0 21be 4439 ddbd a9df 0f3e
000000e0: 6f5d 06be e193 4cbd 2f40 f43d 9f0f 113e
000000f0: 742c 78bd e87d 39bd 0c60 89bd 00a9 bd3c
00000100: 2b9e 013e 894f 0cbd aecb a5bd 5170 863d
00000110: 4b59 d83d e63d 34bd f2a1 fe3b 68c0 843d
00000120: bbce aa3d d381 4abe 2bd0 2b3e 87fb 79bb
00000130: 4473 52bd dddd 073e 47ba cdbd 86b4 5e3e
00000140: d06b c8bd 0458 68bc 6bf6 123e db9a 4abd
00000150: ffae 033d 8fa8 26be 2fbe e4bd 70aa 003e
00000160: 0576 b8bd ceca bcbc f7cd 9e3d 848b 073e
00000170: c711 c73d 6894 043e 9b97 203e faa3 d83b
00000180: 0283 213b ca56 e23c 0f50 103e 7cc1 72be
00000190: 6e38 4dbe b677 da3d 6df7 f53a 3f4c 1abe
000001a0: bc57 1abc 5a9e d63d f36c 0cbd beae 5c3d
000001b0: 3547 523d e71f 833c 6d01 cabe 84df 25be
000001c0: 2171 b63d 2528 2bbe 12bd 3b3e 3a55 8b3e
000001d0: 6237 7abe c940 0f3e fb5c 933d 94f8 003d
000001e0: e203 af3d 83d0 083e 11ed bbbd 8e35 723e
000001f0: d219 7fbe 9375 7ebc 4259 89be 8214 0ebd
00000200: e1f7 79bd 16e5 a0bc 3189 a43d 9cc6 11be
00000210: e9a0 01be 4c59 9abd dbe7 f2bc 669c 28bd
00000220: 046a 483d 5926 6e3e 152d e53d 6441 6c3d
00000230: 9da7 1f3d 2851 20be b15e 22bd 839f 383e
00000240: a2b0 d03c 0cf3 59bd 7a3a 123e de93 85bd
00000250: d70f b2bd 525e ab3d cce4 e23d 1943 febc
00000260: 06d7 2fbd 390e 1c3d 79f8 eb3d b3f9 04bd
00000270: 8fb5 6f3d caeb 9f3d 86a3 dc3c 34cb 70be
00000280: 0889 02be 3b63 d43c b8ed a33c 9d58 0fbe
00000290: cfb4 1a3e a29b 973d 750f 77bd 05f5 fb3b
000002a0: 8fbb 3abe b079 e3bd cc97 c23d 16aa 193e
000002b0: fa7d 783d db8c 36be 2fc1 fd3d 24b0 9c3d
000002c0: b8f4 da3b 9ce9 1b3e b0d9 2d3d 11cc 2c3d
000002d0: e87a c2bd 167d 48bd 36fc 463d ddae 263e
000002e0: 7381 2ebd f641 173e f52b 663a 9146 8f3d
000002f0: 2e65 50bd a92a bc3d ba14 86bc 8981 09be
00000300: 00e6 07be 859b 233d 9cd7 2fbb 6907 ddbd
00000310: d90c 29be 8c33 84bc 3345 963b 487d ba3d
00000320: ac7a 2f3e 1700 003c fd6d 693d dbd7 093e
00000330: 0342 4abe 4a82 00bd ea51 883d ab25 abbc
00000340: f78a b5bd 99b6 1f3e 3ef6 8bba 6bc8 563d
00000350: 41f0 83bb b780 583d 33f3 233e ca39 233e
00000360: 50a4 143e 7a6b debd e066 0fbe da87 a63d
00000370: f1df 13bc 45b1 113e 40b2 78be d8bf 70be
00000380: f1c6 0b3e 7b70 cb3d 3314 ecbd efff 313c
00000390: 1759 31be dc18 12be e3c6 01be e6d4 fb3d
000003a0: e777 ab3d 70ed 253e bc16 88bd 25c3 15bc
000003b0: 36a4 883c a57e ab3d c8ae 23be c766 b73d
000003c0: d73b 5cbe 2054 c33d 676b dd3d 4631 1d3e
000003d0: 05c2 a33d cc42 7d3e 1a55 f13c 2dc5 433d
000003e0: 4eec 193e 992e 0d3e 58de 383b c4ad 99bd
000003f0: c0d8 3a3d 6878 143d 0484 753d 7406 afbd
-0.11097092 0.08870226 -0.026777716 0.010731236 0.09505656 -0.20801766 -0.016796766 -0.18543883
0.14151439 -0.035043046 0.007178889 0.17473382 0.07552455 -0.1868758 -0.11790967 0.033434194
0.06879568 0.19649446 0.1521925 -0.073575206 -0.1769214 0.20988482 0.2574599 0.057856657
-0.081646524 -0.10270255 -0.16561954 -0.10009792 0.11933736 -0.06099743 -0.16719146 0.0001572996
-0.10129493 -0.17753904 -0.014863142 0.13493754 0.050564587 -0.097368 0.16124491 0.097987555
0.10277301 0.2201702 -0.050628453 -0.0880679 -0.05081866 0.17751172 -0.13804933 0.09882945
-0.08191403 -0.07259523 0.1592596 -0.11421046 0.10033673 -0.15796055 -0.10801938 0.14050163
-0.1312158 -0.049945716 0.119263045 0.14166115 -0.06058927 -0.04528609 -0.067077726 0.023151875
0.12657993 -0.034255538 -0.080954894 0.065643914 0.10563906 -0.044004343 0.00777077 0.06482011
0.08340212 -0.19776087 0.16778629 -0.0038144307 -0.051379457 0.13268228 -0.10045295 0.21748552
-0.097861886 -0.014181141 0.14351813 -0.049464088 0.03214931 -0.16275238 -0.11169087 0.12565017
-0.090068854 -0.023045924 0.077541284 0.13236815 0.09720188 0.12947237 0.15682833 0.0066113444
0.0024644737 0.027629275 0.1409304 -0.23706621 -0.20041057 0.10667364 0.0018765755 -0.15068148
-0.009420332 0.10479422 -0.03428359 0.053877585 0.05133744 0.016006423 -0.39454213 -0.16198546
0.089082964 -0.16714533 0.18333843 0.2721346 -0.2443519 0.13989557 0.07195469 0.031487063
0.085456625 0.13360791 -0.09176076 0.23653242 -0.24912193 -0.015530962 -0.2682591 -0.034687527
-0.06102741 -0.019640487 0.0803398 -0.1423592 -0.12659039 -0.07536563 -0.029651573 -0.04116478
0.04892923 0.23256816 0.11190239 0.05767955 0.038978208 -0.15655959 -0.039641086 0.18029599
0.02547485 -0.053210303 0.1428012 -0.06522344 -0.086944275 0.083675995 0.11078796 -0.031037854
-0.04292967 0.0380995 0.11522002 -0.032464694 0.058522757 0.07808645 0.026933443 -0.23515016
-0.12747586 0.025926223 0.020010814 -0.13998647 0.15108036 0.074027315 -0.060317475 0.0076891207
-0.1823561 -0.111071944 0.09501609 0.15006289 0.060667016 -0.1782717 0.123903625 0.07650784
0.006682005 0.15225834 0.04244393 0.0421868 -0.09496099 -0.048947416 0.04858037 0.16277643
-0.04260392 0.14771256 0.0008780354 0.06995881 -0.050877742 0.09187824 -0.016367305 -0.1342832
-0.13271332 0.039943237 -0.0026831394 -0.10792429 -0.16508807 -0.01613786 0.004585886 0.09105927
0.1713664 0.007812521 0.05698966 0.13461249 -0.19751744 -0.031374253 0.06656249 -0.020891985
-0.08864396 0.15596999 -0.0010678244 0.052437227 -0.004026443 0.052857127 0.16010742 0.15940014
0.14515805 -0.10860343 -0.14004087 0.081313804 -0.00902556 0.14227779 -0.24286747 -0.23510683
0.13650109 0.09933563 -0.1152729 0.010864242 -0.17319141 -0.14267296 -0.12673526 0.122964665
0.08372479 0.16203856 -0.06644961 -0.009140764 0.016679864 0.08373765 -0.15984643 0.0895515
-0.21507202 0.0953753 0.10811501 0.15350828 0.07995991 0.24732512 0.029459525 0.047795463
0.1503155 0.13787307 0.00282087 -0.07503846 0.045616865 0.03624764 0.059940353 -0.08546153

lstm.weight_hh_l2 f4 [128, 32]
00000000: 38df 7bbd d444 003e 03ee e2bc f57a 8e3b
00000010: 5c68 90bd 4f9e 87bc d455 67be 6154 2bbe
00000020: 5f57 033e fe88 5b3d 9d1d c2bd 018e af3d
00000030: 6777 073e b774 40be 4870 d9bb a9ed 5fbd
00000040: eaa7 f8bd b09c cb3d 5eaf 28be a07d 673d
00000050: 5617 18be df20 e53d 4fde 2ebe f014 e63c
00000060: 7599 323e f50a 00bd 93d5 c43b 0474 693d
00000070: 2ed5 043e 083d fdbd ce32 5b3c 12cd 703e
00000080: f021 98bd 0d64 17be f227 39bd 8475 a4bd
00000090: c29d b1bd 7de2 18be f23d 97be b36d 193e
000000a0: cead 903e e5dd 13be 8959 23be bfbe bfbd
000000b0: cd2c f7bd 42fe 043e 3020 723d 0b54 ffbd
000000c0: 2bb4 70bd 5197 5e3e ee0e 59be 1e68 52bd
000000d0: bf32 543c f565 5a3d 2ba5 4a3d 2540 e23d
000000e0: 0cbf c3bd c32e 8b3e 90c3 37be 6856 b3bd
000000f0: 7a9f f03d 2f76 1abe ad8a 3bbe be21 c5bd
00000100: 1ae6 b73c 2647 bfbd ba5e 2bbe a13c afbd
00000110: 834d a83d ea25 c3bd 6a1d 30bb 3216 afbd
00000120: 6821 273c b63f 5fbd e01b 79be 1391 2d3e
00000130: 51e4 0b3e 8d09 813d 1fcc 503d 3e2c 25be
00000140: 7cb0 8cbe 5a88 0abe c306 cd3c 1504 163e
00000150: ca7e d8bc 8688 b73d deb1 c7bd 33bd fa3d
00000160: bf23 083d f25f 813e aa6b 93be 9788 f23d
00000170: 9423 3abd 5d23 9e3d 8842 34be c6e6 823d
00000180: 0fc9 babd 094f 363e 9a24 163e 2999 b13e
00000190: 2063 c4be e75f 3abe b16a 80bd 6032 1a3d
000001a0: 861c 0a3d 3ab1 9d3d 5421 143d 3a2a c4bd
000001b0: 8de5 0e3d 4948 8fbd 40c5 a4bd ea21 7b3e
000001c0: 7a73 a53e d89a 5dbe e747 b43e 68f4 883e
000001d0: f160 6dbe 14e7 073e cdcd adbd 376c 31be
000001e0: 77bf b6bd d1ee ae3d 1331 fb3d ac4a 8abd
000001f0: 7be6 19be 3c3f 823d 65f5 c53d 94a3 9c3e
00000200: a57f 7bba a14b d73d f6cc 363d 01e6 233e
00000210: 2cb6 7f3d 149f 6e3d 3e0e a3bd 0f7c e73c
00000220: a075 bc3d fbcc 983d 72b3 cebd 9110 33bd
00000230: 035d 84bd 2e1b c2bd 88ac 57bc 4c1a df3d
00000240: b557 283d 24e5 9abc 1fe3 afbd bfd5 e43d
00000250: bddd 50bc 3ef1 863c d7e8 1c3e b917 95be
00000260: 547d 6c3d 6741 853c 1ef1 7b3d e1ed efbc
00000270: d418 09be 05a4 e53c 2ed9 df3c 0beb c03d
00000280: a537 47be 6f3d 2c3d 6781 1c3e a2a2 873d
00000290: 136b 9ebc 3497 f7bd 19ac 0dbe 2c9d 6dbd
000002a0: 577f c43d ee4e 8ebd 18ef 27be 99a7 3bbe
000002b0: fb12 aebd 47fc 8f3d 0da3 93bc 766b 4a3e
000002c0: cfd7 83bd 39fa 6d3d f834 c43d 77de c6bb
000002d0: f8f5 863d 50ce 0ebe 7b30 313c 9fd2 eabd
000002e0: c107 24bd 0f55 8b3e 2409 82bd 5172 873d
000002f0: d020 2dbe 57bd 143e 8bb4 23be 54c2 053e
00000300: e833 90be 32b4 58bc 036b bc3c 7187 003e
00000310: b522 43bd f92a 7bbe b7e5 98bd 83a5 d13d
00000320: df01 73be 76e5 643d 6b25 603e b10e a2bb
00000330: 8cb2 343e 52e6 b9bd af80 dfbd 3c61 a5bb
00000340: 427b 873e 21ab 2fbe 6de7 243c 531d c23d
00000350: 2949 4f3c bd3b 6c3e c092 243e c010 bbbe
00000360: 504a 35be 112b 163e 8d53 423e b299 75be
00000370: ce92 2a3e ff17 ea3d 9495 4b3e c622 783e
00000380: e9f7 993d ecb4 c23d 184f fe3d d171 4e3e
00000390: ca53 2c3d 18ad f63c 5458 37be c273 bf3d
000003a0: 41fa 183e 78a5 0cbb 1ec1 733d c525 db3b
000003b0: 37cc 1ebd a590 d1bd c4d9 53bc 6153 ce3d
000003c0: 301d 263e d65d 223e bbee 0a3e 01d8 6e3d
000003d0: b9b5 23be bb62 f7bd 0843 8fbd 2527 ce3c
000003e0: f712 f93d 31e6 243e 3ff3 15be 7b83 15be
000003f0: 64c4 073e b90c 81bd f1f3 f0bd 952a 963d
-0.061492175 0.12526256 -0.027701383 0.0043481537 -0.07051155 -0.01655498 -0.22591335 -0.16731407
0.12826298 0.053597443 -0.094783045 0.08572007 0.13229142 -0.18794523 -0.0066356994 -0.05467001
-0.12141402 0.09941995 -0.16473147 0.05651629 -0.14852652 0.1118791 -0.17076991 0.028086156
0.17441352 -0.03126045 0.0060069053 0.056995407 0.12971947 -0.123651564 0.013378812 0.23515728
-0.07428348 -0.1478426 -0.04520411 -0.08030227 -0.08672668 -0.14930148 -0.29539448 0.14983253
0.28257602 -0.14440115 -0.15952124 -0.09362554 -0.12069092 0.12987617 0.059112728 -0.12467202
-0.05876557 0.2173741 -0.21197101 -0.051368825 0.012951552 0.05331989 0.049473923 0.11047391
-0.09557924 0.27184114 -0.17945695 -0.08756715 0.11749168 -0.15084146 -0.1831462 -0.096255764
0.022448588 -0.09339742 -0.16735354 -0.08556486 0.08217909 -0.09528716 -0.0026873 -0.08549155
0.010200836 -0.05450412 -0.2432704 0.16949873 0.13661315 0.0630065 0.050975915 -0.16130158
-0.27478397 -0.13528576 0.025027638 0.14649995 -0.026427645 0.08961587 -0.09750722 0.12243118
0.033237215 0.25268513 -0.2879308 0.11842459 -0.045444086 0.07721589 -0.17603505 0.06391673
-0.0912038 0.17803587 0.146624 0.34687164 -0.38356876 -0.18200646 -0.0627035 0.037645698
0.03371861 0.07699819 0.036164597 -0.095783666 0.034886885 -0.06996209 -0.08045435 0.24524656
0.32314664 -0.216411 0.35211107 0.26748967 -0.23181511 0.13271743 -0.08486519 -0.17326437
-0.08923238 0.08541644 0.122652195 -0.06752524 -0.15029328 0.06359717 0.09665946 0.3059355
-0.00095939107 0.10512472 0.04462906 0.16005708 0.062429592 0.058257177 -0.07961701 0.028257398
0.09202123 0.07460972 -0.1009282 -0.04371697 -0.06463053 -0.0947784 -0.013163693 0.108936876
0.04109927 -0.01890809 -0.08588242 0.11173581 -0.012748179 0.016472455 0.15323196 -0.2911966
0.05773671 0.016266538 0.061509244 -0.029288234 -0.13388377 0.028032312 0.027325239 0.09419831
-0.1945482 0.042050775 0.15283738 0.066228166 -0.019338166 -0.120893866 -0.13835181 -0.05801122
0.09594601 -0.069486484 -0.16399801 -0.18325652 -0.08499714 0.0703054 -0.018022085 0.19767556
-0.064376466 0.05809996 0.095804155 -0.0060690003 0.065898836 -0.1394589 0.010814781 -0.11465954
-0.040046457 0.27213332 -0.063494 0.06613601 -0.16907048 0.14525352 -0.1598684 0.13062412
-0.281646 -0.013226556 0.023000246 0.12551667 -0.04764052 -0.24528112 -0.0746569 0.10236647
-0.23731183 0.055882894 0.21889274 -0.004945599 0.17646235 -0.09077133 -0.10913216 -0.0050469916
0.26461226 -0.17155124 0.010064942 0.094782494 0.01265172 0.23069663 0.16071606 -0.36536217
-0.17704129 0.14664866 0.18977185 -0.23984411 0.16657564 0.11430358 0.19881278 0.24232015
0.07517988 0.09507164 0.1241743 0.20160605 0.042072095 0.030111834 -0.17904788 0.09348251
0.14939214 -0.0021460932 0.059510343 0.006687852 -0.038768973 -0.10232667 -0.012930337 0.10074497
0.16222072 0.15856108 0.13567631 0.058311466 -0.1598729 -0.12079378 -0.06995207 0.02516515
0.121618204 0.16103436 -0.14643572 -0.14600937 0.13258511 -0.06301255 -0.11765278 0.07332341
